chris_KaiABC_params.npy (npy, 3264 bytes, 1 tensors)

array f8 [8, 49]
00000000: b2ba eadc a6cf 04c0 3b7a 5921 5d67 10c0
00000010: 4f3c a311 4dfa e4bf 968b b1fa ea02 03c0
00000020: 5afe 7b24 9322 f53f 29a6 e55b 2e2f 18c0
00000030: dba5 0ee3 dba3 1640 f0e8 db51 dd7b 0940
00000040: 16fd 1984 71c8 1140 d332 46af a983 19c0
00000050: 7dc1 8d35 63be 03c0 e95f f0e2 4712 03c0
00000060: 8825 7a6b 8d91 1140 9260 d675 6df1 13c0
00000070: 19be 5240 397f 01c0 4d86 3d87 d43c f73f
00000080: e3c3 c541 c188 0e40 7aa4 f44f 3831 1cc0
00000090: 13ef 5ea3 8e25 e83f 0887 260a 905c 0dc0
000000a0: 3045 4bcd cdfd 10c0 6149 aa43 3e13 febf
000000b0: 9739 1b35 126f 0dc0 5a2b 59e1 8493 1a40
000000c0: cb3e be81 cdad 1bc0 1760 3322 24de 1340
000000d0: ff26 72ad 257d 18c0 12e1 34d8 c8e3 9abf
000000e0: 002a 2338 4b13 12c0 9b4f aa4b e72f 1340
000000f0: 7c5b 2c21 22ff 13c0 4aeb 46f8 bd1b 1440
00000100: 4013 cd4c 305d 18c0 359f 888a ca1d 14c0
00000110: 23d1 9704 6112 18c0 8c17 e292 4279 0c40
00000120: 31f5 20c0 9273 1ac0 f851 5b74 78ff 0e40
00000130: 22db f87b 8180 1b40 c690 cf07 360b 19c0
00000140: 0c07 417e f5b1 0440 acfe 4a6e bfb6 1040
00000150: 7d81 37ae 185b 1c40 7a67 1c62 c6ee 18c0
00000160: c0ee db31 50fb 1040 fa25 71bf 4447 1c40
00000170: 7e3b d975 c3d4 1b40 47cc 7114 0b7f ba3f
00000180: 7add 9d75 1809 1140 f905 10d2 4c36 0ec0
00000190: 1564 252e 1c36 12c0 77b3 f74f 051f febf
000001a0: ef96 bcbe ebd6 14c0 4083 d621 2246 d73f
000001b0: 895f 323b fe2b 11c0 f5cf 2864 9966 1540
000001c0: a549 0e1f aead 12c0 0c33 0c1d 641e 0a40
000001d0: 7fd1 b2ec c8e1 e4bf aa36 d62e 08ff 13c0
000001e0: b551 0b2c 818d 1440 f523 808a 933c cbbf
000001f0: b1a3 c0fc f8f3 14c0 bf60 388f 0170 05c0
00000200: 5e36 3879 4348 1cc0 ae12 99a2 a557 0f40
00000210: e6ce dca4 cae9 0940 6153 0585 90be 1640
00000220: 4fd7 a461 4daa 1ac0 5e11 53af df2f 10c0
00000230: 01a6 38c8 7a0e 17c0 327d cf6b 1f78 15c0
00000240: 738c 0ae5 3978 0fc0 4447 a28b 242f 1cc0
00000250: d41d 7aff 3b96 c63f f20a 0341 3b7e a83f
00000260: 9fdf e6d4 3e12 dbbf 37f3 f0da b73f 13c0
00000270: 6542 9da2 8986 f43f e407 2151 e118 febf
00000280: 8143 c82b c38c 1340 c920 498a e242 1bc0
00000290: 70da 2534 a6c6 13c0 f03a 3d5f 4308 f8bf
000002a0: 340e e3d3 ceda 1840 9582 4fb8 a828 1cc0
000002b0: 0d71 0468 5bae 0940 1f86 6298 aa66 1c40
000002c0: 7c5b 6c55 f3da 13c0 adb6 3a5d c315 ff3f
000002d0: 7407 b183 93d1 fe3f 8592 a850 c6bc 1b40
000002e0: a2eb be15 3db4 1140 2568 9bc3 6ba5 1b40
000002f0: 8546 689a bdfe 1a40 9e9f 12aa 0c42 1b40
00000300: a5b1 124d bd89 0d40 f450 c322 d7f1 1640
00000310: 75e1 9f34 dee0 0ac0 c59b 6a3c 848d 12c0
00000320: 804b c042 7fbb f3bf 9398 320c 2509 15c0
00000330: 178b a590 323b da3f 8b14 a6f2 2321 1cc0
00000340: 9a2b 2196 6f07 12c0 0db3 bb84 e281 1440
00000350: b0a8 5cbd 817f f23f 171f 74f1 c5c0 1540
00000360: c0e1 2d82 554f d43f cf76 58a3 7b2e 1640
00000370: 3ae9 f83a 126f 1840 974d 24e7 d7bb f53f
00000380: 8339 56d9 2399 06c0 c0da 0f61 9a08 06c0
00000390: ef6a b968 3b47 1540 0ccf e56b 2070 e63f
000003a0: 1da9 e808 bf83 0ac0 f69b 390d c80c 10c0
000003b0: fd05 f0fa 42e9 1540 e30c a73a eec1 15c0
000003c0: 929c 34ee 668d 16c0 b5d0 61da 8c02 1740
000003d0: 37be 986d c01a 1cc0 86de b130 8d9d 0640
000003e0: d3d6 754e ebb5 0dc0 67e6 affc fb09 0b40
000003f0: b2c6 2564 de5b 14c0 d58f 736e ecc4 1b40
00000400: 0bb2 edb1 0f0f 1ac0 cd98 dddf d8c4 0840
00000410: 9e5e b5b4 25b1 12c0 02f2 244d 8f6b 0ec0
00000420: f723 5ca1 46cd 14c0 4518 3ac7 0e1d 17c0
00000430: 567d e724 6ff1 1bc0 16c9 e383 4c72 0a40
00000440: eff5 8368 077f 1c40 2196 3f9b 1a4b 15c0
00000450: 0bfd 451f 1e09 de3f 65f2 5296 c1d7 10c0
00000460: 8f47 05c9 d8d1 1840 6c00 c2a2 189c 07c0
00000470: 6c74 e76f c71d 1940 bdf3 057b 7719 1940
00000480: 0189 c6b2 d935 1840 17db 5ce3 6ec4 03c0
00000490: 62b7 6f5e 3170 1140 57ee 8442 f730 12c0
000004a0: 93b8 3fd4 8174 17c0 4397 0733 0abc 0dc0
000004b0: 475e ca5c b974 13c0 5c3e 70b4 fc00 07c0
000004c0: 249e 1003 3005 14c0 e649 ec9b 92e2 ebbf
000004d0: 098a cbcd abf6 15c0 5e0d 1f85 fd81 1440
000004e0: f18d bf70 4ce4 15c0 ddd4 8bc2 8c41 0fc0
000004f0: 2bc3 052d a896 fa3f f079 fc9b 68f2 1bc0
00000500: aac3 0957 95db 0840 e049 d0dd 364c 11c0
00000510: 7a48 58af b454 19c0 e279 dff6 baaa 00c0
00000520: a75d 8006 fa8e e43f f8db 7151 6a28 1240
00000530: a780 822a 6767 1cc0 4c50 646b afa1 c63f
00000540: 4b3c 218f a1fa 0cc0 9b36 98d6 c9ed 11c0
00000550: 0586 cb31 c78b 12c0 204b c2be 9a14 1bc0
00000560: 481c 1a70 412b c7bf a9aa 801f 345e 13c0
00000570: 0bb1 465a 2cc2 1540 5e6c d50c 9f6b 19c0
00000580: 0d45 568c e6eb 03c0 0988 ebde 9304 1ac0
00000590: b922 b11b 34b1 1a40 5327 1657 ad2d 11c0
000005a0: 254e f85a 2bbb e6bf 8a83 0dd1 a312 19c0
000005b0: d125 7270 1cff 1340 3d72 b8b0 548c 1bc0
000005c0: 27e1 f11f 2fad 0b40 8299 b910 494f 04c0
000005d0: e0c2 28a2 c19c 18c0 adfc 5213 ab10 f4bf
000005e0: de5e 42dd 8f04 1c40 4c23 2b9a 4b16 e53f
000005f0: 9982 1d7a bddf 16c0 7443 b003 08ab 1a40
00000600: da5e c2ef 32a8 1b40 3a04 e466 a2a9 1b40
00000610: a8ed cb6c b8e2 04c0 cbfe eb84 3cf8 1b40
00000620: 4284 aa25 12a0 12c0 2c83 0934 3cc2 14c0
00000630: 6415 e4ca 7dc7 15c0 833c 4a56 47b6 18c0
00000640: a25d aeb0 6adc f9bf 32ee ddae 416e 1bc0
00000650: 6f21 baec aea0 f33f fda0 cf1d cb37 0d40
00000660: 815c 9625 c37d 1440 3d13 a170 b2a2 17c0
00000670: 0587 4872 77b5 babf 4ff7 42d5 91cf ee3f
00000680: 707a 420a 179d 10c0 f048 66f3 9d89 1040
00000690: 9580 bece 9946 0cc0 a685 aa11 7fb1 1ac0
000006a0: b945 c978 a182 11c0 6143 2768 9d42 01c0
000006b0: 206b 6612 e973 1040 b3e2 a75c c2d5 1bc0
000006c0: c31b fa55 a010 06c0 20b5 17cd fd6f d1bf
000006d0: 5b4f 925e 802b 13c0 6cf5 78d7 c995 0cc0
000006e0: ca4f 7914 c930 13c0 e6c2 3113 4762 fa3f
000006f0: d2bb c79b fdfb 0fc0 433c a822 1419 1640
00000700: 9953 884b 00d9 1ac0 5261 ad85 6b92 e7bf
00000710: 50e3 690f 1f91 12c0 a533 62e2 3b83 1740
00000720: f6b7 2995 bb31 1cc0 8a4b 5888 26d4 09c0
00000730: a67a c76b 9ea9 17c0 8de0 1055 b5d1 17c0
00000740: a8eb 8ef9 1269 1cc0 db0c 2bfd b0cd e0bf
00000750: 3201 7957 f85b dbbf 5952 4e46 19f9 0b40
00000760: b7a1 139b fafd e8bf c2a1 b914 e51f 0fc0
00000770: 2c86 9f58 855a ee3f 7c89 baea 9de5 1840
00000780: f9eb 6e42 bfc9 1a40 8ec2 c885 fe7b 1640
00000790: ca61 6e00 8666 1b40 8bb0 4028 1aa8 0840
000007a0: fd2a 864c 54f3 1b40 9b06 9d4b b055 13c0
000007b0: 21fe 11dd bbb0 16c0 c912 a57c 5a10 14c0
000007c0: 78f2 53b5 89bf 16c0 cb15 0ff3 1f08 0d40
000007d0: bd53 45fe 6f7d 1cc0 e640 2e05 22f8 05c0
000007e0: 6294 a90e 1a30 1340 7903 2161 2819 1940
000007f0: 4a1e 0563 5d26 17c0 6cb9 1008 3554 01c0
-2.6013924845822993 -4.100941201292296 -0.6555543274388443 -2.3764247498924744 1.3209411072893062 -6.046075282947222 5.660018489617381 3.1854807276951007
4.44574552925703 -6.378576983127192 -2.4679626640210572 -2.3839261750799676 4.392141036348569 -4.98576912041621 -2.187120916867354 1.4523511202645694
3.816774858329596 -7.048066376978676 0.7545846167408591 -3.670196608830228 -4.247855384558804 -1.8796980517550639 -3.679233946698513 6.64406158549067
-6.91972925876298 4.966934713731482 -6.122214040844255 -0.026259554096413736 -4.518841626306767 4.7967807600688515 -4.999153631527289 5.027091864899214
-6.091004562393948 -5.029092945660342 -6.017948219076319 3.5592090106246754 -6.612864496242126 3.874741467511054 6.875493943275417 -6.260948297542376
2.5868940223307444 4.178464625670738 7.088961336267286 -6.233178647025733 4.245423106239912 7.069598189621951 6.957776872047246 0.10350102662214154
4.258882367859195 -3.7765137110843594 -4.552841874153292 -1.88257342564904 -5.209883671055407 0.36365559868322705 -4.292962002706084 5.35019451617335
-4.669609532591868 3.264839388785168 -0.6525616286294705 -4.9990546530004085 5.1381880647572205 -0.21278614294740775 -5.238254498727586 -2.6796904744224714
-7.070569891029292 3.9177963927234805 3.2391560439954104 5.686098173570685 -6.666310811697101 -4.046751727528628 -5.764140251596019 -5.367307362116934
-3.9337041753620325 -7.046037847308813 0.1764597890325904 0.04783806961633798 -0.4229886130447031 -4.812224789577889 1.2828461029168008 -1.8810742539503673
4.887463268373609 -6.81531730719889 -4.943993391809826 -1.5020173759727946 6.213679609998099 -7.039706115582381 3.2101352812152357 7.100260144246504
-4.963818869341477 1.942813266923092 1.9261660713386535 6.934350261963691 4.4260142705706205 6.911543899879722 6.748770153631658 6.814501435648621
3.6922555943803723 5.7361722404204905 -3.359798823479816 -4.638199752814164 -1.2332756621806027 -5.258930388057837 0.4098631298603989 -7.032363692652448
-4.50726160600143 5.126840661960853 1.1561295887900478 5.4382550933003335 0.3173421641618255 5.545393516802235 6.10846798080666 1.3583601979233657
-2.8247754077376057 -2.7542007048571975 5.319562565152167 0.7011873347641724 -3.3143292137148266 -4.012481886521519 5.47779457178103 -5.4393853344401775
-5.638087961159856 5.752490436763925 -7.026124679992384 2.826929455211771 -3.7138277177535683 3.3798751584225104 -5.08971554260795 6.9423081644090034
-6.514708309300214 3.0961167802334786 -4.672995399064943 -3.802519419374449 -5.200464745758828 -5.778376686974359 -6.985775543812755 3.3058100036515823
7.124051697782746 -5.323343683010109 0.46930649808923935 -4.210699414074587 6.204928532550084 -2.9512188640074353 6.279081104757193 6.274869844663894
6.052588265769601 -2.470914627333865 4.359563327377915 -4.547818221438852 -5.863776508702489 -3.716816328686862 -4.863988351680354 -2.8754819962266946
-5.005065963639513 -0.8714077992793221 -5.490889754818007 5.126943664570119 -5.472947847072178 -3.9070067595408617 1.6617814787570733 -6.986727177891666
3.10721843718098 -4.324428048932958 -6.332720508349775 -2.0833644186925406 0.642453205774406 4.539468071531694 -7.100979484763378 0.1768092417120236
-3.622378462030189 -4.482215264358866 -4.6365020542593856 -6.770121555908901 -0.18100755666475465 -4.841995708683194 5.439622316898986 -6.35509891560204
-2.49018582952761 -6.504470332265563 6.673050339399816 -4.294606552817487 -0.7103478218800247 -6.2682030357835945 4.999131924597763 -6.887041817910867
3.4595625396433607 -2.5387135798111453 -6.153082402932995 -1.2540694002962411 7.004455048728884 0.6589715968230876 -5.718496234942585 6.667022760041494
6.9142568075546595 6.915658576647781 -2.610703325246238 6.992418362525949 -4.65631922581912 -5.189682782250014 -5.444815797968975 -6.178006504326848
-1.6163126851659873 -6.857672436042366 1.2267293212081218 3.6522428826320934 5.122814738561943 -5.908883819419143 -0.10433146038169745 0.9628380933060984
-4.153408203418266 4.134391596906639 -3.534473052204769 -6.673336292298165 -4.377569091114702 -2.157526792238443 4.113193786145331 -6.958749244448586
-2.7581183163597145 -0.27246041325163795 -4.792481877975514 -3.5731388887203845 -4.797642059234883 1.648993563631103 -3.998042313607109 5.524490872877382
-6.711915188022339 -0.7366235361942393 -4.641720047796142 5.878158128017195 -7.048567133590032 -3.228589120096733 -5.915643390703428 -5.954793290286159
-7.102611445758988 -0.5251088089647981 -0.4274884084916436 3.4966302387859227 -0.7810032872048883 -3.8905736560011244 0.9485499125405048 6.224235217700308
6.69701865961087 5.621088114145676 6.850120550858671 3.0820811409703928 6.987626262368164 -4.833680325945944 -5.672591642592608 -5.01597018010643
-5.687048753021934 3.6289671887377373 -7.122497532826796 -2.746158638452573 4.796974400615996 6.274568097724903 -5.787465617358587 -2.166116774568925
